checkpoint.pth (torch_old, 28417 bytes, 6 tensors)

fc1.weight f4 [64, 37]
0	0x3e10969e	0.14119956
1	0x3aec9b04	0.0018051569
2	0xbde9d1e9	-0.1141699
3	0xbebb3818	-0.36566234
4	0xbe256724	-0.16152626
5	0x3e07005c	0.13183731
6	0xbddda123	-0.1082175
7	0x3dc03d9c	0.09386751
8	0xbcc6aab7	-0.024251325
9	0xbeb67148	-0.35633302
10	0x3d4d0838	0.050056666
11	0xbcf0e869	-0.029407697
12	0xbe812956	-0.2522685
13	0xbe1ffaa9	-0.15622963
14	0xbde5028e	-0.11182128
15	0x3ce6bfbe	0.028167602
16	0x3e027bb2	0.12742499
17	0x3d72c0fd	0.05926608
18	0xbde12023	-0.10992458
19	0x3dffb7bf	0.12486219
20	0x3e1c16be	0.1524305
21	0x3e38bc51	0.18040587
22	0xbdaea67d	-0.08527849
23	0x3d9c4c88	0.07631785
24	0xbe23050a	-0.15919891
25	0x3e05eb91	0.13078143
26	0xbaf12d7e	-0.0018400399
27	0xbe454a37	-0.19266592
28	0x3d0c850d	0.034306575
29	0x3b1491e9	0.0022669977
30	0xbe03bc33	-0.12864761
31	0x3e184ce2	0.14873078
32	0x3d787dfe	0.06066703
33	0xbcc83d0b	-0.02444317
34	0x3dcbd3ee	0.09952532
35	0x3dbee4cd	0.09320984
36	0xbd77b081	-0.06047106
37	0x3e36f8a0	0.1786828
38	0x3e2b8ac4	0.16752154
39	0x3e185e10	0.14879632
40	0xbd1ac650	-0.03778678
41	0x3d5f4ee8	0.05451861
42	0x3e3747fb	0.17898552
43	0xbbdd21e0	-0.006748423
44	0xbe681ee0	-0.22668028
45	0xbe7d30a9	-0.24725594
46	0xbf025db6	-0.5092424
47	0x3df646d8	0.12025231
48	0xbd9c30bf	-0.07626485
49	0x3cf85643	0.03031457
50	0x3e986f98	0.2977264
51	0x3e3e9b0d	0.18613835
52	0x3e0ddd08	0.13853848
53	0x3d30a35d	0.043124545
54	0x3df5add3	0.11996045
55	0x3d5961ab	0.05307166
56	0xbe58afaf	-0.21160768
57	0xbd849f18	-0.06475657
58	0x3d735c26	0.05941405
59	0xbe410ed2	-0.1885331
60	0x3dffc78a	0.12489231
61	0x3e222bab	0.1583697
62	0x3de5e169	0.11224634
63	0xba2a70cf	-0.0006501795
64	0x3d8588c9	0.0652023
65	0xbd0c72b5	-0.03428908
66	0x3cfdd153	0.030983603
67	0x3d238468	0.039921194
68	0x3e53353f	0.2062578
69	0x3e0224f2	0.12709406
70	0x3e058f1a	0.1304287
71	0x3e036fc5	0.12835605
72	0x3c99c560	0.018770874
73	0x3ba0fbc0	0.0049128234
74	0x3e15d0e5	0.14630468
75	0x3e1d1e9c	0.15343708
76	0x3de126ed	0.10993753
77	0x3d5c2e44	0.05375506
78	0xbda889a5	-0.082293786
79	0x3cb8c757	0.02255599
80	0x3daa2b36	0.08309023
81	0x3e1df372	0.15424898
82	0x3de17232	0.11008109
83	0xbdf481d3	-0.119388245
84	0x3ec52559	0.38505057
85	0xbf0044bb	-0.50104874
86	0xbdf6adc6	-0.120448634
87	0xbe9db2ce	-0.3080048
88	0xc000adb3	-2.0106018
89	0x3bc7346d	0.0060792477
90	0x3de924ec	0.113839954
91	0x3e17bdb1	0.14818455
92	0x3dfc88f8	0.12330812
93	0x3c29ad57	0.010356269
94	0xbbd7b1df	-0.006582483
95	0x3d65dff2	0.056121774
96	0x39c74dd0	0.00038014213
97	0x3e023814	0.12716705
98	0x3c5b0211	0.013367192
99	0x3d2a649a	0.041599847
100	0x3d88dbce	0.066825494
101	0x3e090c3e	0.13383576
102	0x3e2b5edb	0.16735403
103	0x3dce6eb1	0.100797065
104	0xbe4712ba	-0.19440737
105	0x3cba3999	0.022732543
106	0xbda2a8db	-0.07942363
107	0x3d424f13	0.047438692
108	0x3e06014d	0.13086434
109	0x3ca931b4	0.020653583
110	0x3bc18981	0.0059062843
111	0x3ecb4461	0.39700606
112	0xbe7b3f71	-0.2453592
113	0x3cdad669	0.026713567
114	0xbe1c85a4	-0.15285355
115	0xbf8e6918	-1.1125822
116	0xbc2dc066	-0.010604953
117	0x3b9d792f	0.004805706
118	0xbcbe23f6	-0.023210507
119	0x3e62d3b7	0.22151075
120	0x3e5d169c	0.21590656
121	0x3cef8dcb	0.029242417
122	0xbd2fe5fc	-0.04294394
123	0x3cea7d43	0.028624183
124	0xbdd7c378	-0.105353296
125	0xbddd6143	-0.10809567
126	0xbc5c51af	-0.013447209
127	0x3bb76696	0.005596946
128	0xbe0e021c	-0.13867992
129	0xbe2c0c5a	-0.16801587
130	0xbc01f3cf	-0.007931664
131	0x3daac86c	0.08339009
132	0xbd1fe527	-0.039036896
133	0xbd879f3b	-0.06622168
134	0x3d1f0c57	0.038830128
135	0xbe8b7b7c	-0.2724265
136	0x3d583a3a	0.052789904
137	0xbd98a70a	-0.07453735
138	0x3df8fb2b	0.121572815
139	0x3df3dd40	0.119074345
140	0x3e89c37b	0.26906952
141	0x3dfe7fa1	0.12426687
142	0x3da4bb9d	0.08043597
143	0x3b50c796	0.0031857244
144	0x3cc82220	0.024430335
145	0xbd6884ce	-0.056767277
146	0xbba98e9b	-0.0051744706
147	0x3ad4c0cd	0.0016231776
148	0xbdbc1007	-0.091827445
149	0xbe0bddac	-0.1365878
150	0xbd860b79	-0.06545157
151	0xbe1c21ac	-0.1524722
152	0xbcd8ed1c	-0.02648025
153	0x3ec9dfeb	0.39428648
154	0xbe8e9e90	-0.2785535
155	0xbf3bcecf	-0.7336244
156	0xbee7f39f	-0.45303056
157	0xc0037dd9	-2.0545561
158	0xbc0c73bb	-0.008572514
159	0xbc8f7f60	-0.017516792
160	0xbc8e92af	-0.017403929
161	0xbc452990	-0.012033835
162	0xbcd7aa44	-0.026326306
163	0xbdde216b	-0.10846218
164	0xbd81f6c9	-0.06345899
165	0xbd6fc95b	-0.058541637
166	0x3d9e99c6	0.07744174
167	0x3d920572	0.07129945
168	0xbd798809	-0.06092075
169	0x3d440503	0.047856342
170	0xbae246ad	-0.0017263495
171	0x3ddb530c	0.10709199
172	0x3db53260	0.08847499
173	0x3d849801	0.06474305
174	0x3da13ee7	0.07873326
175	0x3e26314a	0.1622974
176	0xbd3b2cb8	-0.045696944
177	0x3b7568ba	0.0037446455
178	0x3dcdae45	0.10043005
179	0x3dd916e5	0.1060007
180	0x3e1fd92d	0.1561019
181	0x3d9371bf	0.0719943
182	0x3e11f948	0.1425525
183	0xbd183222	-0.037157185
184	0x3b8b5f48	0.004253302
185	0x3d99791d	0.07493804
186	0xbc72c68b	-0.014817844
187	0x3cbf484c	0.023349904
188	0x3da0c0f9	0.078493066
189	0xbd4df80c	-0.050285384
190	0x3e9de311	0.308373
191	0x3e88f744	0.2675115
192	0xbda10622	-0.07862498
193	0xbe4ebafd	-0.20188518
194	0xbf833db4	-1.0253205
195	0x3da90a4e	0.082539186
196	0x3afddbba	0.0019367852
197	0x3c8925db	0.016741684
198	0xbc036f97	-0.008022211
199	0x3d8806a3	0.06641891
200	0x3dc93d69	0.09826166
201	0x3dca4dc5	0.098781146
202	0x3ce029af	0.027363626
203	0xbdc829bf	-0.097735874
204	0xbdb7b833	-0.0897068
205	0x3e166d5a	0.14690152
206	0x3d85cdac	0.065333694
207	0x3e5e73e8	0.21723902
208	0x3e5f7aae	0.21824142
209	0x3e1eb179	0.15497388
210	0x3da294f0	0.07938564
211	0x3dde2915	0.108476795
212	0x3c2602af	0.010132476
213	0x3dd78ba6	0.10524683
214	0xbd511826	-0.05104842
215	0x3d956a90	0.07295716
216	0x3ddb478d	0.107070066
217	0x3c925447	0.017862452
218	0x3e44230f	0.19153999
219	0xbdae871d	-0.085218646
220	0x3cde5ced	0.02714392
221	0x3d4fa620	0.05069554
222	0xbc5b30a1	-0.013378293
223	0x3d9ca54d	0.07648716
224	0xbdef2cbd	-0.11678455
225	0xbbaddd26	-0.005305904
226	0xbe361ac4	-0.17783648
227	0xbe2ffea3	-0.1718698
228	0xbe233be7	-0.1594082
229	0x3e250807	0.16116343
230	0xbe3b9311	-0.1831782
231	0x3f0f6e75	0.5602792
232	0x3e0e56ce	0.13900301
233	0xbe20ed92	-0.15715626
234	0x3dc74b4c	0.097311586
235	0xbe1cbe1f	-0.153069
236	0x3e19112b	0.14947955
237	0xbd9b62cd	-0.07587204
238	0xbe4ff046	-0.20306501
239	0xbd8d2ccb	-0.06893309
240	0x3ddf0eb1	0.10891474
241	0x3e7ac69a	0.24489823
242	0xbe863c68	-0.2621796
243	0xbdfb0fe4	-0.1225889
244	0x3d9d9a0e	0.07695399
245	0x3ce1bee8	0.027556852
246	0x3e029b46	0.12754545
247	0xbe826ef7	-0.25475284
248	0x3d46d253	0.048540425
249	0xbd487974	-0.04894395
250	0xbdde6892	-0.10859789
251	0xbe093add	-0.13401361
252	0xbe558f3d	-0.20855422
253	0xbda25d2f	-0.079279296
254	0x3d3f29fa	0.04667089
255	0xbd10b572	-0.03532929

fc1.bias f4 [64]
0	0x3e1424df	0.1446719
1	0x3d306a21	0.043069962
2	0xbdc0e7d9	-0.094192214
3	0xbd8192de	-0.06326841
4	0x3e515eca	0.20446315
5	0x3dbcd5fd	0.092205025
6	0xbe0b534d	-0.13605995
7	0x3de1733f	0.110083096
8	0x3ddf2f5d	0.10897706
9	0xbe88e327	-0.26735803
10	0x3e294b55	0.16532643
11	0x3de15610	0.11002743
12	0x3dcbcff5	0.09951774
13	0x3e2bcb69	0.16776814
14	0x3dcae248	0.09906441
15	0xbd65e550	-0.056126893
16	0x3db06d50	0.086146
17	0xbcaaca18	-0.020848319
18	0x3bc45c12	0.005992421
19	0xbe20e0f3	-0.15710811
20	0xbd39cda3	-0.045362126
21	0x3c975e48	0.018477574
22	0xbd3fdf32	-0.046843715
23	0xbd60ae6a	-0.054853834
24	0xbdfdff46	-0.12402205
25	0x3e6d41ea	0.23169675
26	0xbda4a1bc	-0.08038661
27	0xbe66ea81	-0.22550394
28	0x3e2d2bea	0.16911283
29	0x3e3b9fc6	0.18322667
30	0xbd78625a	-0.06064067
31	0xbe43a303	-0.19105153
32	0x3dd07b86	0.1017981
33	0xbd64471a	-0.05573187
34	0xbda6621b	-0.08124181
35	0x3dbb97de	0.09159826
36	0x3d8b4048	0.0679937
37	0x3d3845d6	0.044988476
38	0xbde92490	-0.11383927
39	0xbe12f12c	-0.14349812
40	0xbe388101	-0.18017961
41	0x3d9111dd	0.07083485
42	0xbe0b26c3	-0.13589005
43	0x3e2d17f3	0.16903667
44	0x3c709671	0.0146843055
45	0x3db3844b	0.08765467
46	0x3d2ce7f3	0.04221339
47	0xbd64bc09	-0.055843387
48	0xbdd21a5e	-0.102589354
49	0x3d710c76	0.058849774
50	0xbe14ff67	-0.14550553
51	0x3dd348df	0.103166334
52	0xbdc6eac4	-0.09712747
53	0xbd4beb34	-0.049784854
54	0xbe6bb2c9	-0.2301742
55	0xbbe2e70e	-0.0069245165
56	0x3dfe9b64	0.12431982
57	0xbd891e4c	-0.06695232
58	0xbdaa9b86	-0.08330445
59	0xbe3bd495	-0.18342812
60	0x3d3efbe1	0.04662693
61	0x3d5b28f0	0.053505838
62	0x3bf0530f	0.00733412
63	0x3df8118c	0.12112722

fc2.weight f4 [64, 64]
0	0x3cb244f2	0.021761391
1	0xbae512f0	-0.0017476957
2	0x3f1967c5	0.59923965
3	0x3e2cf125	0.16888864
4	0xbe8b91b6	-0.27259606
5	0xbd8671a4	-0.06564644
6	0x3e38b982	0.18039516
7	0xbc2c16c9	-0.010503479
8	0x3e719210	0.23590875
9	0x3dd56f0e	0.104215726
10	0x3d7ceead	0.061751056
11	0xbda1d207	-0.07901388
12	0xbd442ece	-0.0478962
13	0x3e53a0ed	0.20666857
14	0xbc559b9d	-0.013037589
15	0x3ce2a445	0.02766622
16	0xbd98f24f	-0.07468092
17	0xbe41edbd	-0.18938346
18	0xbe5c6cd3	-0.21525888
19	0x3dcc3fdb	0.09973117
20	0xbeb9d105	-0.36292282
21	0xbc5ff057	-0.013668141
22	0xbcb8f19e	-0.02257615
23	0xbd115582	-0.035481937
24	0xbc5e4228	-0.013565578
25	0xbd0b9f57	-0.034087505
26	0x3e7b7c74	0.24559194
27	0xbe6503fc	-0.22364801
28	0x3dae8120	0.085207224
29	0xbdcad2f3	-0.099035166
30	0xbe0ca29c	-0.13733906
31	0xbe189422	-0.14900258
32	0xbd699c22	-0.057033665
33	0x3e06126d	0.13092966
34	0x3e09dc17	0.13462864
35	0xbc173bc1	-0.009230555
36	0xbebb086a	-0.36529857
37	0x3db3775b	0.087629996
38	0x3e06b873	0.131563
39	0x3e665db8	0.22496688
40	0xbe113029	-0.14178528
41	0xbdc53b5e	-0.09630464
42	0x3c4b070d	0.012391818
43	0x3e14bb1a	0.14524499
44	0x3deb6817	0.11494463
45	0x3dba9254	0.09109941
46	0xbdc99109	-0.098421164
47	0x3dc4b34d	0.096045114
48	0xbdd5a58c	-0.10431966
49	0xbdfd5ba6	-0.12370996
50	0x3d0706f0	0.0329656
51	0xbdd0f9e2	-0.10203911
52	0xbe0bac42	-0.1363993
53	0x3e558b15	0.20853837
54	0xbead1f3c	-0.33812892
55	0x3e150d08	0.14555752
56	0xbe1783c4	-0.14796358
57	0xbcb15e4b	-0.021651408
58	0xbe191055	-0.14947636
59	0x3d57af6b	0.052657526
60	0xbd547daf	-0.051877674
61	0x3d948df5	0.07253639
62	0x3cc2e2a7	0.023789717
63	0xbe869478	-0.26285148
64	0xbc110983	-0.008852365
65	0x3d2fe51e	0.042943113
66	0x3e80f781	0.2518883
67	0x3c82a5f0	0.015948266
68	0x3e78904a	0.24273792
69	0x3de4e666	0.111767575
70	0xbe7fb353	-0.2497075
71	0xbddbf29a	-0.10739632
72	0xbe3e4bb0	-0.1858356
73	0xbe3f8023	-0.18701224
74	0xbd8ea6e0	-0.06965423
75	0x3db079a6	0.086169526
76	0xbde176bb	-0.11008974
77	0x3d32659a	0.043553926
78	0xbe9b45d3	-0.3032671
79	0xbe3322a3	-0.17493682
80	0x3d09af74	0.03361459
81	0x3e2789bc	0.16361135
82	0x3ad02789	0.0015880923
83	0xbd7ecbc4	-0.062206045
84	0x3dab6e1c	0.08370611
85	0xbe1ce90c	-0.15323275
86	0xbe2b8bcb	-0.16752546
87	0xbea73998	-0.32661128
88	0xbe40e2b3	-0.18836479
89	0x3e9d0dd8	0.30674624
90	0xbe1864ab	-0.14882152
91	0x3c9cd2cc	0.019143485
92	0x3dea4c88	0.114403784
93	0x3ce76807	0.028247846
94	0xbe0df448	-0.13862717
95	0xbd1dc989	-0.038522277
96	0xbdadbe01	-0.08483506
97	0xbdf38f8f	-0.11892616
98	0xbdf9a1af	-0.12189042
99	0xbd74f592	-0.059804507
100	0xbe1f100d	-0.15533467
101	0xbbb784b3	-0.005600536
102	0x3d84d1af	0.064853065
103	0xbdd099e2	-0.10185601
104	0xbc1856a6	-0.009298002
105	0xbddd60bb	-0.108094655
106	0xbd5e2b34	-0.05424042
107	0xbe5eff1b	-0.21777003
108	0xbe02374e	-0.1271641
109	0xbd21ce5e	-0.039503448
110	0xbe406b6e	-0.18790981
111	0xbd2e96e9	-0.042624388
112	0xbd9cb1d8	-0.076511085
113	0xbd8dbefa	-0.069211915
114	0xbe15594d	-0.14584847
115	0x3e470733	0.1943634
116	0xbe2b773b	-0.16744702
117	0xbe6dc08c	-0.23217982
118	0xbd07c3a4	-0.03314556
119	0xbe9e5c22	-0.30929667
120	0xbd1b2414	-0.037876204
121	0xbda8b010	-0.08236706
122	0x3e2d023c	0.16895384
123	0x3dc40b89	0.09572513
124	0xbe344d70	-0.17607665
125	0x3d690f16	0.056899153
126	0x3b263965	0.00253638
127	0x3da97bbe	0.08275555
128	0xbe543b7b	-0.20725815
129	0xbdf68581	-0.120371826
130	0x3e1d1c84	0.15342909
131	0xbda0dee6	-0.078550145
132	0xbe5178e2	-0.2045627
133	0xbd99efde	-0.07516454
134	0x3c4a32a2	0.012341173
135	0x3d805d63	0.06267812
136	0x3f303927	0.6883721
137	0xbd2e5354	-0.042559937
138	0xbcd2fee5	-0.025756309
139	0x3da8097c	0.08204934
140	0x3bdfbb7d	0.0068277703
141	0x3e11623b	0.14197628
142	0xbbecef41	-0.0072306697
143	0xbdd317e6	-0.10307293
144	0xbd346bde	-0.044048183
145	0xbc7d5b93	-0.0154637275
146	0x3d1ed6a4	0.038778916
147	0xbe42f3a9	-0.19038261
148	0xbdc7058d	-0.097178556
149	0xbd85ccc5	-0.06533197
150	0xbe1abb6c	-0.15110558
151	0xbe41e678	-0.18935573
152	0xbe220b30	-0.1582458
153	0xbe400551	-0.18752028
154	0x3e98731e	0.29775327
155	0xbe7e4071	-0.2482927
156	0xbda1230a	-0.07868011
157	0x3e04d6ef	0.12972616
158	0xbc8f7480	-0.017511606
159	0x3d2d813c	0.042359576
160	0xbdab1323	-0.083532594
161	0x3c24ed8f	0.010066404
162	0xbd4be955	-0.04978307
163	0x3e4f8af1	0.20267846
164	0xbcc0ae9c	-0.02352076
165	0xbe7d6bc8	-0.24748147
166	0x3dd82400	0.105537415
167	0x3da6f8c9	0.08152921
168	0x3d2f62dd	0.042818893
169	0xbce9b7ec	-0.028530084
170	0x3e8815bd	0.26579085
171	0xbe71597e	-0.23569295
172	0xbc7bd786	-0.015371209
173	0x3e2bb90c	0.16769809
174	0xbd435074	-0.047684148
175	0xbeaa010a	-0.33203918
176	0xbd8b452d	-0.068003036
177	0xbecff0ac	-0.40613306
178	0x3d4f4b66	0.050609015
179	0xbedb6e14	-0.4285742
180	0xbdd6c867	-0.104874425
181	0xbeed88a8	-0.46393323
182	0x3ce902b2	0.028443668
183	0x3e97a841	0.29620555
184	0x3e152f7d	0.14568897
185	0xbe449fbb	-0.19201557
186	0xbdccde95	-0.10003392
187	0x3c8d45ca	0.017245192
188	0xbba4ceee	-0.0050295508
189	0xbe858fb6	-0.26086205
190	0x3e11a11b	0.14221613
191	0xbe926d7b	-0.28599152
192	0xbdd7062b	-0.10499223
193	0xbe7214f8	-0.23640811
194	0x3f141071	0.5783759
195	0xbe491d34	-0.19640046
196	0xbe964b6e	-0.29354423
197	0x3ccdcf5d	0.025123293
198	0xbe81c33a	-0.2534426
199	0xbcf7333a	-0.030175794
200	0xbecff1a5	-0.40614048
201	0x3dd921f5	0.1060218
202	0xbda9dc00	-0.08293915
203	0xbdcb0d8d	-0.09914694
204	0x3d5f876d	0.05457251
205	0x3e4daad4	0.20084697
206	0xbd5a50bc	-0.05329965
207	0xbcd96413	-0.026536977
208	0x3d3429d9	0.04398522
209	0xbef06113	-0.46949062
210	0xbd91ea92	-0.07124819
211	0x3dafa33c	0.08576056
212	0xbcb5a24c	-0.022172116
213	0xbddb1e02	-0.10699083
214	0xbe9281c0	-0.28614616
215	0xbe0856d4	-0.13314372
216	0x3e1a5e92	0.15075138
217	0xbda6c1ce	-0.08142434
218	0x3c80d969	0.01572867
219	0xbe4058ba	-0.18783846
220	0x3e72089e	0.236361
221	0xbda81c04	-0.082084686
222	0xbda737ff	-0.08164977
223	0xbe373411	-0.17890956
224	0xbdd4758a	-0.10373981
225	0xbe0ab662	-0.13546136
226	0x3cca776a	0.024715144
227	0x3e43383b	0.19064419
228	0xbe7b013c	-0.2451219
229	0xbe42dae5	-0.19028814
230	0x3e7d92ca	0.24763027
231	0x3e1123d9	0.14173831
232	0xbdea8589	-0.11451251
233	0xbcd05d3d	-0.025435084
234	0xbcbb6ce3	-0.02287907
235	0xbd5ef17e	-0.054429524
236	0xbe52c1c9	-0.20581736
237	0x3ddb1596	0.106974766
238	0xbdb7e97d	-0.08980081
239	0x3da613b2	0.08109225
240	0x3c62a9d9	0.01383444
241	0xbecf46f7	-0.4048383
242	0x3cc800e3	0.024414485
243	0xbe90c831	-0.28277734
244	0xbded643f	-0.11591386
245	0xbe0770f3	-0.1322668
246	0x3d3715bf	0.044698473
247	0x3e09639f	0.13416909
248	0xbec64037	-0.38720867
249	0xbdd15fe2	-0.10223366
250	0xbe398a30	-0.1811912
251	0x3ea421a7	0.32056925
252	0xbe9e3b5e	-0.3090467
253	0xbd903d3b	-0.07042929
254	0xbcb40b53	-0.021978056
255	0x3d4d524a	0.050127305

fc2.bias f4 [64]
0	0xbaa36b6c	-0.0012467927
1	0xbcdcd7b2	-0.02695832
2	0x3d74f81c	0.059806928
3	0x3dc37888	0.09544474
4	0x3e1addb2	0.15123633
5	0xbe3320a3	-0.17492919
6	0x3bfeeb0f	0.007779486
7	0x3df7fdcc	0.12108955
8	0x3e504a06	0.20340738
9	0x3f0c3d18	0.5478072
10	0xbcb781ef	-0.022400824
11	0x3f10ff08	0.56639147
12	0x3d3399b8	0.04384777
13	0xbe297858	-0.16549814
14	0xbd06bfef	-0.032897886
15	0x3cc313a1	0.02381307
16	0x3e0b11c3	0.13580994
17	0x3de56668	0.11201173
18	0x3d769b18	0.060206503
19	0x3ece9ba3	0.40353116
20	0x3da4ffe5	0.080566205
21	0x3f22250b	0.63337773
22	0xbe3b47b7	-0.18289076
23	0xbcb0266e	-0.0215027
24	0x3b1c8deb	0.00238883
25	0xbe349c97	-0.1763786
26	0x3cec29ae	0.028828468
27	0x3d02accc	0.031903073
28	0xbd914734	-0.07093659
29	0x3e61e50b	0.22060029
30	0xb827ed84	-4.0037106e-05
31	0xbe116669	-0.14199223
32	0x3e74e845	0.23916729
33	0x3d92fc76	0.07177059
34	0xbc6875d8	-0.014188252
35	0xbd57cfe7	-0.052688506
36	0xbde4d212	-0.1117288
37	0xbdbc78a5	-0.092026986
38	0x3d9cf9a8	0.07664806
39	0x3e186a07	0.14884196
40	0xbdf6f6ea	-0.12058814
41	0x3f11fa1b	0.57022256
42	0x3d1135e9	0.035451803
43	0xbdc620e4	-0.09674242
44	0x3eb5e792	0.35528237
45	0xbe10366e	-0.14083263
46	0x3e8f05ca	0.27934104
47	0xbe3efe73	-0.18651752
48	0xbcb99bc5	-0.022657285
49	0x3d15dbb5	0.036586482
50	0xbe2b7048	-0.1674205
51	0x3f0b5eb5	0.54441386
52	0xbe09ee5e	-0.13469836
53	0xbdf68719	-0.120374866
54	0x3e76a6c8	0.2408706
55	0xbe63bd01	-0.22240068
56	0xbdb9adc2	-0.09066345
57	0xbe381249	-0.17975725
58	0x3cf0969d	0.029368693
59	0xbd87849f	-0.06617092
60	0x3bb45f52	0.005504527
61	0x3e85939c	0.2608918
62	0x3d8ec1aa	0.06970532
63	0x3b1e7d3d	0.0024183535

fc3.weight f4 [4, 64]
0	0x3d95d443	0.07315876
1	0x3db22dbb	0.08700129
2	0x3f105ce6	0.5639175
3	0x3e4a794e	0.19772837
4	0x3e2a6336	0.16639408
5	0xbd8e98c8	-0.069627345
6	0x3e2d5d22	0.16930059
7	0xbda94922	-0.08265902
8	0x3ed3b972	0.4135242
9	0x3e1668cb	0.14688413
10	0x3e084023	0.13305716
11	0x3e3ce61b	0.18447153
12	0x3ef2d238	0.4742601
13	0x3d8dcd21	0.06923891
14	0xbda9865e	-0.08277582
15	0x3ea8426a	0.3286317
16	0xbe936ee8	-0.28795552
17	0x3e6b7dc4	0.22997195
18	0x3ea2ec94	0.3182112
19	0x3e482c5b	0.1954817
20	0x3ec20ab7	0.378988
21	0x3e50cf7a	0.20391646
22	0xbe38c47a	-0.180437
23	0x3d817f41	0.063231
24	0xbd2f3f3e	-0.04278492
25	0xbe0d5e17	-0.13805424
26	0xbd99293f	-0.0747857
27	0x3debaefa	0.115079835
28	0xbe2be200	-0.16785431
29	0x3e6ef53b	0.23335735
30	0xbe604719	-0.21902122
31	0xbda587ee	-0.08082567
32	0x3e02ca9d	0.12772603
33	0x3eae87fd	0.34088126
34	0x3de69a91	0.1125995
35	0x3f080b92	0.53142655
36	0xbc79e962	-0.015253397
37	0xbe45e7bc	-0.19326681
38	0x3ddad2d9	0.10684747
39	0x3e411121	0.1885419
40	0xbcc74d9f	-0.024329005
41	0x3e32ba76	0.17453942
42	0x3dfd3e6e	0.12365423
43	0xbd091011	-0.033462588
44	0x3e3eb99a	0.18625489
45	0xbe15e9a1	-0.14639904
46	0x3e1a72e1	0.15082885
47	0x3ebf4412	0.3735662
48	0xbdfa4050	-0.12219298
49	0x3e5dd0b4	0.21661645
50	0xbde73ed4	-0.112912804
51	0x3e5174d0	0.20454717
52	0x3e4651d0	0.19367146
53	0x3e63221a	0.22180977
54	0x3dd7df8d	0.10540686
55	0xbe0afb66	-0.13572463
56	0xbe84fb71	-0.25973085
57	0xbe818c28	-0.25302243
58	0x3f2c2d0e	0.6725625
59	0x3c9ef5a8	0.019404247
60	0xbef07af0	-0.46968794
61	0x3e0fd2eb	0.14045303
62	0x3d96c7c1	0.07362319
63	0x3e403a49	0.18772234
64	0x3e6236e7	0.22091256
65	0x3dce127c	0.10062119
66	0x3ed2ef28	0.41198087
67	0x3ea8589c	0.32880104
68	0x3e391118	0.18072927
69	0xbd8aa8e5	-0.06770495
70	0x3d55448e	0.052067332
71	0x3d95bc8d	0.07311354
72	0x3eb1e2fe	0.34743494
73	0x3e24d32d	0.16096182
74	0x3e6d9d0e	0.23204443
75	0x3e37b478	0.17939937
76	0x3ec9f159	0.39441946
77	0x3e7785ca	0.2417213
78	0xbda7c210	-0.08191311
79	0x3e4bd47c	0.19905275
80	0x3ea01db9	0.31272677
81	0x3e809d28	0.251199
82	0x3e78c1e0	0.24292707
83	0x3db607f8	0.08888239
84	0x3f095b89	0.53655297
85	0x3e769ade	0.24082515
86	0xbdde708c	-0.1086131
87	0x3e81bde0	0.25340176
88	0xbcb4e3bd	-0.02208125
89	0xbd980c1f	-0.07424187
90	0x3e01ec72	0.12687853
91	0x3e93e2de	0.28884023
92	0xbe8e253f	-0.27762792
93	0x3e034e0b	0.1282274
94	0x3d8e02c8	0.06934124
95	0x3d11e1c5	0.0356157
96	0x3d8780bc	0.06616351
97	0x3ed245a2	0.4106875
98	0x3e2a703b	0.16644375
99	0x3ed48f66	0.41515654
100	0x3dfd7960	0.12376666
101	0xbf03d5d2	-0.5149814
102	0x3e3abf0f	0.18236946
103	0x3e6214a5	0.22078188
104	0x3eaed7dc	0.34149063
105	0x3e5f1fdd	0.21789499
106	0x3d9fa453	0.07795014
107	0x3bde8450	0.006790675
108	0x3e42d885	0.19027908
109	0xbe007331	-0.12543942
110	0x3dd38de0	0.10329795
111	0x3ec22d9b	0.3792542
112	0xbd628755	-0.055304844
113	0x3e2ebc4c	0.17064017
114	0xbd964ca0	-0.07338834
115	0x3e730679	0.23732938
116	0x3dbef3c1	0.09323836
117	0x3eb59bce	0.35470432
118	0x3e2569c2	0.16153625
119	0xbdc23e4f	-0.09484541
120	0xbdd585d7	-0.104259185
121	0xbe3484fd	-0.17628856
122	0x3eb99582	0.36246878
123	0xbc916d53	-0.017752325
124	0xbbe66dae	-0.007032118
125	0x3dce30e5	0.1006792
126	0x3d8e1977	0.06938451
127	0x3e8889fb	0.2666777
128	0x3e66f475	0.2255419
129	0x3ea5fba5	0.32418552
130	0x3ee8436b	0.45363936
131	0x3efc9243	0.4933034
132	0x3ea1a237	0.31569073
133	0xbd88265b	-0.06647941
134	0x3e463fa1	0.1936021
135	0x3d6ef942	0.05834318
136	0x3e4ad18f	0.19806503
137	0x3e21136d	0.15730067
138	0xbe7062b2	-0.2347515
139	0x3ea55eb4	0.32298815
140	0x3f22c0be	0.6357535
141	0xbeef600d	-0.46752968
142	0xbe0f9de9	-0.14025082
143	0x3e92402d	0.28564587
144	0x3f018452	0.5059253
145	0xbd69d160	-0.05708444
146	0x3db284a9	0.08716709
147	0x3da53ca7	0.08068209
148	0xbe4f8fbf	-0.20269679
149	0x3e691bac	0.22764462
150	0xbe8c8c3e	-0.27450746
151	0x3d090456	0.0334514
152	0x3e35d95b	0.17758696
153	0xbca009b8	-0.019535884
154	0xbce2102e	-0.027595606
155	0x3e30bde4	0.17259938
156	0x3d956f69	0.072966404
157	0x3e566c8d	0.20939846
158	0x3d8a38f0	0.06749141
159	0xbe379f7f	-0.17931937
160	0x3d606c57	0.05479082
161	0x3ec57f6b	0.38573775
162	0x3ec8dd06	0.39231128
163	0x3ec2d251	0.38051084
164	0x3dcb4450	0.09925139
165	0xbf2093de	-0.6272563
166	0x3ecefc7e	0.4042701
167	0x3e5cfa9d	0.21579976
168	0x3ea0f640	0.31437874
169	0x3e550245	0.20801647
170	0x3eb19906	0.3468706
171	0x3e223596	0.15840754
172	0x3e14ba17	0.14524113
173	0xbe2d353f	-0.16914843
174	0x3e2530ee	0.16131946
175	0x3f760107	0.9609532
176	0x3dc8ece7	0.098108105
177	0xbd5436b9	-0.05181
178	0xbe7f27f9	-0.24917592
179	0x3e63d91f	0.22250794
180	0x3eb32b1b	0.34993824
181	0x3e00cbc9	0.12577738
182	0x3d9703b0	0.0737375
183	0x3e5ca2f8	0.21546543
184	0xbe927666	-0.28605956
185	0xbe3c5967	-0.1839348
186	0x3e9894e1	0.29801086
187	0x3e003951	0.12521864
188	0xbeb164fd	-0.3464736
189	0x3e585faf	0.2113025
190	0xbe6eda16	-0.2332538
191	0x3e6be2b4	0.23035699
192	0x3e6932c2	0.22773269
193	0x3ebcf74b	0.3690742
194	0x3ee5d341	0.44887736
195	0xbea90a90	-0.3301587
196	0x3df9760a	0.12180717
197	0x3dfb4019	0.12268085
198	0xbe9cd6db	-0.30632672
199	0x3e1911bf	0.14948176
200	0x3e128305	0.14307792
201	0x3e54e2c7	0.20789634
202	0x3ef8aad7	0.4856784
203	0x3e4ae564	0.19814068
204	0x3e399479	0.18123044
205	0xbd2976ad	-0.041372944
206	0x3e489704	0.19588858
207	0x3e06c17f	0.1315975
208	0x3ed66a4f	0.41877982
209	0x3e27f698	0.16402662
210	0x3e9745df	0.29545495
211	0x3dfaffd8	0.122558296
212	0x3f11500a	0.56762755
213	0x3e7b6e11	0.24553706
214	0xbe0e94cb	-0.13923948
215	0x3ec55792	0.38543373
216	0x3e3df368	0.18549883
217	0xbe08c800	-0.13357544
218	0xbe7589ed	-0.23978396
219	0x3eb213f5	0.3478085
220	0xbed85d5a	-0.42258722
221	0x3d6a9565	0.05727138
222	0xbecf75d9	-0.40519598
223	0x3d80155e	0.062540755
224	0x3e00b32c	0.12568349
225	0x3f174a3b	0.5909764
226	0x3cf88122	0.030335013
227	0x3ee82ac8	0.4534514
228	0xbe0650ef	-0.13116811
229	0xbdaa4c3b	-0.08315321
230	0x3e2b695b	0.16739409
231	0x3e62ee77	0.2216128
232	0xbef9d5bc	-0.4879588
233	0x3e417939	0.18893899
234	0x3e927432	0.28604275
235	0x3d737fec	0.059448168
236	0x3e4998f6	0.19687256
237	0xbea27f1f	-0.3173761
238	0x3df82c8c	0.12117872
239	0x3e009002	0.12554935
240	0x3d475b58	0.048671097
241	0x3c0e5d05	0.00868917
242	0xbe291e63	-0.16515498
243	0x3e6d17f4	0.23153669
244	0xbd953ca2	-0.072869554
245	0x3f044c5f	0.51679033
246	0x3e224bb4	0.15849191
247	0xbd828f7a	-0.06375022
248	0xbf089d39	-0.533649
249	0xbe2074cc	-0.15669554
250	0x3ea2c4be	0.31790727
251	0xbdf2d534	-0.118570715
252	0xbea64d38	-0.32480788
253	0x3db5f82a	0.08885224
254	0xbd966b01	-0.07344628
255	0xbd113836	-0.035453998

fc3.bias f4 [4]
0	0x3ed631f8	0.41834998
1	0x3ea2fd41	0.31833842
2	0x3e5f4663	0.21804194
3	0x3e8113a2	0.2521029
